Prepare the dataset for training and testing ...
Preparation of the data completed!
Fold: 0
Model: "LSTM_NET_BIG"
_________________________________________________________________
Layer (type)                 Output Shape              Param #   
=================================================================
input_1 (InputLayer)         [(None, 80, 63)]          0         
_________________________________________________________________
bidirectional (Bidirectional (None, 80, 2048)          8912896   
_________________________________________________________________
batch_normalization (BatchNo (None, 80, 2048)          8192      
_________________________________________________________________
bidirectional_1 (Bidirection (None, 80, 1024)          10489856  
_________________________________________________________________
batch_normalization_1 (Batch (None, 80, 1024)          4096      
_________________________________________________________________
bidirectional_2 (Bidirection (None, 80, 512)           2623488   
_________________________________________________________________
batch_normalization_2 (Batch (None, 80, 512)           2048      
_________________________________________________________________
bidirectional_3 (Bidirection (None, 80, 256)           656384    
_________________________________________________________________
batch_normalization_3 (Batch (None, 80, 256)           1024      
_________________________________________________________________
dense (Dense)                (None, 80, 128)           32896     
_________________________________________________________________
batch_normalization_4 (Batch (None, 80, 128)           512       
_________________________________________________________________
dropout (Dropout)            (None, 80, 128)           0         
_________________________________________________________________
dense_1 (Dense)              (None, 80, 1)             129       
=================================================================
Total params: 22,731,521
Trainable params: 22,723,585
Non-trainable params: 7,936
_________________________________________________________________
None
Epoch 1/500
59/59 - 45s - loss: 10.6287 - mean_absolute_percentage_error: 100.2943 - val_loss: 11.0125 - val_mean_absolute_percentage_error: 99.1158

Epoch 00001: val_loss improved from inf to 11.01247, saving model to ./Models/LSTM_NET_BIG0.hdf5
…
