Prepare the dataset for training and testing ...
Preparation of the data completed!
Fold: 0
Model: "GRU_NET"
_________________________________________________________________
Layer (type)                 Output Shape              Param #   
=================================================================
input_1 (InputLayer)         [(None, 80, 6)]           0         
_________________________________________________________________
bidirectional (Bidirectional (None, 80, 512)           405504    
_________________________________________________________________
batch_normalization (BatchNo (None, 80, 512)           2048      
_________________________________________________________________
bidirectional_1 (Bidirection (None, 80, 256)           493056    
_________________________________________________________________
batch_normalization_1 (Batch (None, 80, 256)           1024      
_________________________________________________________________
dense (Dense)                (None, 80, 128)           32896     
_________________________________________________________________
batch_normalization_2 (Batch (None, 80, 128)           512       
_________________________________________________________________
dropout (Dropout)            (None, 80, 128)           0         
_________________________________________________________________
dense_1 (Dense)              (None, 80, 1)             129       
=================================================================
Total params: 935,169
Trainable params: 933,377
Non-trainable params: 1,792
_________________________________________________________________
None
Epoch 1/500
59/59 - 17s - loss: 10.6393 - mean_absolute_percentage_error: 100.1164 - val_loss: 9.4290 - val_mean_absolute_percentage_error: 82.3582

Epoch 00001: val_loss improved from inf to 9.42902, saving model to ./Models/GRU_NET0.hdf5
…
