Prepare the dataset for training and testing ...
Preparation of the data completed!
Fold: 0
Model: "GRU_NET_BIG"
_________________________________________________________________
Layer (type)                 Output Shape              Param #   
=================================================================
input_1 (InputLayer)         [(None, 80, 63)]          0         
_________________________________________________________________
bidirectional (Bidirectional (None, 80, 2048)          6690816   
_________________________________________________________________
batch_normalization (BatchNo (None, 80, 2048)          8192      
_________________________________________________________________
bidirectional_1 (Bidirection (None, 80, 1024)          7870464   
_________________________________________________________________
batch_normalization_1 (Batch (None, 80, 1024)          4096      
_________________________________________________________________
bidirectional_2 (Bidirection (None, 80, 512)           1969152   
_________________________________________________________________
batch_normalization_2 (Batch (None, 80, 512)           2048      
_________________________________________________________________
bidirectional_3 (Bidirection (None, 80, 256)           493056    
_________________________________________________________________
batch_normalization_3 (Batch (None, 80, 256)           1024      
_________________________________________________________________
dense (Dense)                (None, 80, 128)           32896     
_________________________________________________________________
batch_normalization_4 (Batch (None, 80, 128)           512       
_________________________________________________________________
dropout (Dropout)            (None, 80, 128)           0         
_________________________________________________________________
dense_1 (Dense)              (None, 80, 1)             129       
=================================================================
Total params: 17,072,385
Trainable params: 17,064,449
Non-trainable params: 7,936
_________________________________________________________________
None
Epoch 1/500
59/59 - 43s - loss: 10.6290 - mean_absolute_percentage_error: 100.8048 - val_loss: 10.0695 - val_mean_absolute_percentage_error: 94.3620

Epoch 00001: val_loss improved from inf to 10.06946, saving model to ./Models/GRU_NET_BIG0.hdf5
…
